Log created: 2020-04-23 17:47:32.416135

SUMMARY:
Model: "sequential"
_________________________________________________________________
Layer (type)                 Output Shape              Param #   
=================================================================
conv2d (Conv2D)              (None, 78, 78, 64)        3200      
_________________________________________________________________
max_pooling2d (MaxPooling2D) (None, 39, 39, 64)        0         
_________________________________________________________________
conv2d_1 (Conv2D)            (None, 35, 35, 32)        51232     
_________________________________________________________________
conv2d_2 (Conv2D)            (None, 31, 31, 16)        12816     
_________________________________________________________________
max_pooling2d_1 (MaxPooling2 (None, 15, 15, 16)        0         
_________________________________________________________________
flatten (Flatten)            (None, 3600)              0         
_________________________________________________________________
dense (Dense)                (None, 1024)              3687424   
_________________________________________________________________
dense_1 (Dense)              (None, 512)               524800    
_________________________________________________________________
dense_2 (Dense)              (None, 6)                 3078      
=================================================================
Total params: 4,282,550
Trainable params: 4,282,550
Non-trainable params: 0
_________________________________________________________________

HYPER PARAMETERS:
params = {
    # --- Input Image Parameters ---
    'IMG_WIDTH': 84,
    'IMG_HEIGHT': 84,
    'GRAYSCALE': True,
    # --- Epsilon Parameters ---
    'EPSILON': 0.99,
…
